Adversarial-Training/models/model.pt (torch, 249790 bytes, 12 tensors)

convs.0.weight f4 [4, 1, 5, 5]
000000 5b e4 37 be 9e de 80 3d 9e 59 f8 bd f2 e1 d3 bd
       -0.17958204 0.06292461 -0.12126468 -0.1034583
000010 ec e5 5a be 0a 0e cc bd 63 71 61 3c 9c ea f2 bd
       -0.2137677 -0.09963615 0.013759944 -0.118611544
000020 de b0 43 3e 77 7d 69 3d a0 ce 4d 3e bc c5 85 3d
       0.19110438 0.05700442 0.20098352 0.065318555
000030 36 f8 6a 3d fc 46 5b 3e 56 94 b2 3a d4 3f 01 3e
       0.05736562 0.21413797 0.001362453 0.12622005
000040 f2 75 b0 bd 07 aa 89 3e 61 5c 8b 3e d0 c4 1c 3e
       -0.08616246 0.26887533 0.27218917 0.15309453
000050 09 8b 2b be 77 ba f1 bc b1 d5 ad bd 15 fc 46 3e
       -0.16752256 -0.029507859 -0.08488024 0.19432099
000060 1f 62 82 3d aa 6f e9 3c b3 ef 6c 3c 79 04 76 3d
       0.06366371 0.028495628 0.014461446 0.06006286
000070 d2 21 23 3d f5 12 40 3d 2b 88 29 be cc f8 25 3d
       0.039827175 0.04689308 -0.1655585 0.040520474
000080 da 27 f5 bd ee d1 17 3e a6 93 9b bd 6d d9 9c 3d
       -0.11970492 0.14826176 -0.07596521 0.07658658
000090 c5 df 27 be e8 cf 0d 3e 46 23 de bd ed ac 07 bc
       -0.16393955 0.13848841 -0.108465716 -0.008280975
0000a0 54 ce 04 be e5 e2 45 bd 8a 03 19 be 44 c7 03 3e
       -0.12969333 -0.048312087 -0.14942756 0.12868983
0000b0 8f 98 35 bd 40 06 19 be c0 38 6c 3d ce 27 ab 3d
       -0.044334944 -0.1494379 0.05767131 0.083572015
0000c0 c8 45 4e be 52 db 0a 3e 28 d0 cc bc ef 36 f7 39
       -0.20143807 0.13560227 -0.0250016 0.0004715244
0000d0 4c 1a 94 bc 7c 9a d1 bd 09 99 a3 bd 00 4a 96 3d
       -0.018078946 -0.10234544 -0.079881735 0.07338333
0000e0 e6 1f 46 bd a2 e1 31 3e 3f 2d c9 bd 3e 9b 38 be
       -0.048370264 0.17371228 -0.09823083 -0.1802797
0000f0 19 3d bd bd 09 b5 fa 3c 46 26 3d 3e 5d b0 6d bd
       -0.09240169 0.030603902 0.18471631 -0.05802952
000100 43 0f 7f be 8a 20 c3 3d 07 a2 6d 3d 18 c8 5e 3e
       -0.24908166 0.09527691 0.05801585 0.21756017
000110 25 a1 a9 bc fc 06 20 be ba 07 0a 3d 14 64 a7 3d
       -0.020706723 -0.15627664 0.033698775 0.08173385
000120 8b 4c a7 3c 11 e7 3c 39 36 d8 78 3d 8b 62 0d be
       0.02042224 0.00018015156 0.06075307 -0.13807122
000130 66 72 8e 3d 0b 01 4d 3d fc 2d c6 3c 2b 61 46 3d
       0.069554135 0.050049823 0.024191849 0.04843251
000140 9e 89 26 be b5 e8 37 bc 13 ba 26 be 41 40 27 3e
       -0.16263434 -0.011224915 -0.16281919 0.16333105
000150 40 8f 74 3d f6 da b5 bd fa 03 83 3d 0a 45 5b bc
       0.059706926 -0.08879654 0.06397243 -0.013383159
000160 a2 83 85 3e 48 3f 24 3e 64 c4 b3 bd 0a 58 eb bd
       0.2607699 0.16039765 -0.08777693 -0.114914015
000170 cb d9 37 3e 25 3a 37 3e a8 6d ea bd ec d0 23 be
       0.17954175 0.17893274 -0.114466965 -0.15997666
000180 ba e6 e2 3d 0c 5e 4b 3e 0b 75 07 3e 8e 33 7d bd
       0.11079164 0.19860095 0.13228242 -0.061816745

convs.0.bias f4 [4]
000000 88 67 e6 3c b0 7c 51 be 7f 73 a0 3d 4f cf 71 be
       0.02812554 -0.20457721 0.07834529 -0.23614238

convs.1.weight f4 [8, 4, 5, 5]
000000 e9 25 f2 bd ee 88 d8 bc 6b 94 cc bd 31 8c a0 bd
       -0.11823637 -0.02643248 -0.09989246 -0.078392394
000010 44 1c b0 bc 56 2c 85 bd e6 c3 a5 bc 36 25 f3 bb
       -0.021497853 -0.06502597 -0.020235013 -0.0074202074
000020 99 3a 2a 3d ee 5b e9 3b a4 56 94 bd 9e 79 b2 bd
       0.04155979 0.0071215546 -0.07243088 -0.08714603
000030 0f 32 25 3d 5f 5d 43 3c 43 55 ee 3d 58 54 74 3c
       0.040330943 0.011924117 0.11637356 0.014912687
000040 5a 58 0e 3d 6b fb c9 bc 37 7a ad 3d 93 60 89 3d
       0.034752227 -0.024656018 0.08470576 0.06707873
000050 4c ff 1d bd 49 79 80 bd 70 ca 3c bb 18 c5 33 bb
       -0.03857355 -0.06273133 -0.0028807186 -0.002743071
000060 1e 2d 0f 3d 37 72 1d 3d 23 9a 98 bc b7 b7 35 bd
       0.034955136 0.038439002 -0.018628186 -0.044364657
000070 fe 54 a9 bc 34 93 17 3d b1 c1 10 bd 4c e8 00 3d
       -0.02067041 0.03700562 -0.03534097 0.031471536
000080 47 3e 42 3d a0 85 99 3b 30 29 82 bc e8 c2 48 3d
       0.047422674 0.004685119 -0.01588878 0.049014002
000090 cc 63 9a bb 22 30 bc 3d b3 c4 10 bc 1d 7d 5a 3d
       -0.0047116037 0.09188868 -0.008835959 0.053341974
0000a0 f5 63 6b ba fe fe 97 bd 0a 46 a7 bd 58 14 cc bc
       -0.00089794333 -0.07421683 -0.08167656 -0.024912044
0000b0 60 1c 4c 3c 26 be f1 3c 7b 0a db bc 1d 28 f5 ba
       0.012457937 0.029509615 -0.026738396 -0.0018703971
0000c0 c3 8f 62 3d 46 11 5b 3d 60 45 ac 3d 47 49 09 3e
       0.055312883 0.05348327 0.0841167 0.1340686
0000d0 ad c7 13 3e a4 9d 02 3c 1f 44 46 3c cf 9d 99 3d
       0.14431639 0.007972155 0.012101202 0.07500803
0000e0 d8 54 c4 3d e4 77 9c 3d 96 43 67 3d 95 3b bb 3d
       0.09586495 0.07640055 0.05646094 0.09142224
0000f0 ee 4d 90 3d 1d 58 c6 bb e0 15 51 3d 8b 0a c1 3d
       0.07046114 -0.0060529844 0.051046252 0.09425839
000100 bd 97 7f 3d be df 36 3c f2 90 89 bd db a1 d0 3c
       0.06240057 0.011161743 -0.06717099 0.025467804
000110 9c 91 01 3d 09 23 bb 39 d0 64 0c 3c 0a 14 a6 3d
       0.031633005 0.00035693523 0.008568957 0.08109291
000120 a3 d9 99 3d e8 61 10 3d 8b 51 f6 3d 01 a6 da bc
       0.07512214 0.03524962 0.12027272 -0.026690485
000130 60 95 4b 3c 97 4f 8f 3d 94 02 57 bd 9d c1 07 bc
       0.0124257505 0.069976024 -0.052492693 -0.008285907
000140 45 ea 19 bd e0 0c cf 3d ec c5 92 3d 7f a3 d4 bc
       -0.037576932 0.101098776 0.07166657 -0.025956867
000150 a1 cc 90 bd 11 42 87 3d 82 18 88 bd a7 15 86 3c
       -0.0707028 0.06604398 -0.066452995 0.016367747
000160 6e d6 1e 3a 2f c2 06 3d 43 ee 44 3d 58 fc e5 bc
       0.0006059174 0.03290003 0.048078787 -0.028074428
000170 39 e5 6f 3d ac 82 cd 3c 6e bf 68 ba 43 e1 e7 bc
       0.058568213 0.025086723 -0.0008878623 -0.028305655
000180 15 5f 24 3c 7d d5 ac bb 2e d4 1d 3c 7b d2 d4 3d
       0.010032435 -0.005274473 0.009633107 0.103917085
000190 c0 7d c9 bd a2 3a 02 3c b2 e1 b1 bc 3e 1e 8c 3d
       -0.09838438 0.007948549 -0.021714065 0.06841706
0001a0 5e 62 00 bb 8a 4a 0e bd 55 db 8f bd 92 bd 19 bc
       -0.0019589881 -0.034739055 -0.07024256 -0.009383576
0001b0 52 3a 64 bd 7b 6e 65 bd c7 21 95 3c ce 4d 33 3d
       -0.05571968 -0.056013566 0.018204583 0.043775372
0001c0 98 72 da 3c 0e 8f 40 3d 41 84 82 3d b5 e8 a9 3d
       0.02666597 0.047011428 0.06372882 0.082963385
0001d0 83 50 a8 3d fe a0 0f 3d bc 2b 05 3d 6a 7f 0d bd
       0.082184814 0.035065643 0.03251241 -0.03454534
0001e0 fb 31 8d 3d b4 52 27 3d 0c 80 1f 3d 2b 29 1b 3d
       0.06894299 0.040850356 0.038940474 0.037881058
0001f0 ad 60 84 3d 93 c2 01 3d c1 a5 23 3d 4b 61 65 3c
       0.06463752 0.0316797 0.039952997 0.014000247
000200 2c cc ad bd a4 65 56 bb b3 c5 b6 bd ec 51 98 3d
       -0.08486208 -0.003271439 -0.08924427 0.074375
000210 6f c6 7f bd 00 7d 97 bd 1b 88 e7 3c 75 16 1c 3d
       -0.0624451 -0.07396889 0.028263142 0.038107354
000220 54 71 88 bd bb a9 90 3d ed a2 18 bd c2 43 6c bd
       -0.066622406 0.070636235 -0.037264753 -0.057681806
000230 f0 95 a8 3d a9 19 71 3c b6 98 96 bd 7c b6 c4 3b
       0.08231723 0.0147155905 -0.07353346 0.006003199
000240 c9 ae 47 bd 9d e2 68 bc 6b 29 ad bc 4b 45 95 bd
       -0.048750672 -0.014214185 -0.021137914 -0.07288607
000250 0b 67 be 3d 14 78 91 bd cb f9 dd 3d 5d 55 72 3d
       0.09296998 -0.07102981 0.1083866 0.05916344
000260 0f 8c 87 bd 9a 95 dd 3d 70 90 c1 3d 05 d5 40 3d
       -0.06618511 0.1081955 0.094513774 0.04707815
000270 59 75 a6 3d ab 3c a9 3d 0d f7 ac 3c 33 54 a4 3d
       0.08127851 0.082635246 0.021113897 0.08023872
000280 d1 1e 81 bd a4 9c 86 bd 2e 0c 33 bd c2 fb 9e 3c
       -0.06304706 -0.065728456 -0.043712787 0.019407157
000290 0c 37 13 bd c1 83 d3 bc 11 da 8f bd f4 8e 97 bc
       -0.03594117 -0.025819661 -0.07024015 -0.018500783
0002a0 ea f0 68 3d 44 47 1c 3c a8 19 6d 3d ed 31 9b bd
       0.05687038 0.009538475 0.057885796 -0.07577882
0002b0 73 8a 98 bd ab 0e a7 3a 52 1a ee bc 51 03 b6 3d
       -0.07448282 0.001274546 -0.029065285 0.08887351
0002c0 99 21 8e 3d 07 6e 2e 3d ac f1 c2 3d e4 ed ca 3d
       0.06940002 0.0425854 0.095187515 0.09908655
0002d0 9f f8 a4 3c 14 04 63 3d 19 80 30 bd b7 13 b2 bd
       0.020138083 0.05542381 -0.043090913 -0.086951666
0002e0 56 59 50 3d a8 07 e5 3c 9f ab df 3c 2d b4 23 bd
       0.050866447 0.027957752 0.027303515 -0.03996675
0002f0 5c 8d 66 3d dc de aa bb 1c ea 3f bd 1e 55 80 bd
       0.056287155 -0.005214555 -0.046854123 -0.06266235
000300 95 83 54 bc 67 0b 56 3b 01 0f 72 bd bc b8 e8 bc
       -0.012970825 0.0032660605 -0.05909634 -0.0284084
000310 6c a2 b6 bd 3d d3 c1 3c 3a ae 67 bc b6 36 46 3d
       -0.08917698 0.023660297 -0.01414066 0.04839202
000320 26 35 cc bd 26 59 71 bd 7c 7a 21 be 53 36 bd bd
       -0.09971075 -0.05892291 -0.1576938 -0.09238877
000330 d1 e7 be bd 1b 9b 01 3b 18 3a d8 bd 46 e9 93 bd
       -0.09321559 0.0019776288 -0.105579555 -0.07222228
000340 3d e2 f5 bd f9 c4 32 be ad b6 b9 3d 81 7e 61 bd
       -0.12006042 -0.17457952 0.09068046 -0.055052284
000350 5c b0 98 3d 98 92 ce 3c ac d4 f6 3d e3 80 3b 3e
       0.07455513 0.025216386 0.12052283 0.18310885
000360 0e 11 84 3d 08 ae af 3d e4 21 02 3d 26 b1 28 3e
       0.064485654 0.08578116 0.031770602 0.16473827
000370 98 37 e3 3d ac 49 ce 3c 42 63 d7 bc cb b9 68 3d
       0.11094588 0.025181614 -0.026292447 0.05681781
000380 6a 2d 8d 3d 57 41 86 bc 04 34 bf 3d 70 b2 5f bd
       0.06893428 -0.016388578 0.09336093 -0.05461353
000390 f4 cd 20 3c 81 68 6f bd 09 81 9b 3d c8 aa 8a 3d
       0.009814728 -0.058449272 0.07592971 0.06770855
0003a0 01 1e 05 3d a5 15 a4 bd 2e 2b a0 3d 6e 7a 83 3c
       0.032499317 -0.08011941 0.07820736 0.01604959
0003b0 ac 7d e6 3c 38 ab 87 bc 0b 7a 45 3c 85 a5 b8 bd
       0.028136097 -0.016561136 0.012053023 -0.09015945
0003c0 cb ac 48 3c 8f 0f 3e 3d ec 8e 7b 3d 96 a9 bd ba
       0.012248228 0.046401557 0.061415598 -0.0014470096
0003d0 22 43 ba 3d 46 8c 74 3c de 27 1d 3d 21 33 35 bd
       0.09094836 0.014926022 0.0383681 -0.044238213
0003e0 c4 e5 49 3d 70 80 35 3d e6 50 b8 bd 41 27 91 bd
       0.049291387 0.04431194 -0.08999805 -0.07087565
0003f0 9e e0 11 bd 5a 83 04 bd 12 9b 54 3d e7 22 92 3b
       -0.035614602 -0.03235183 0.0519057 0.004459727

convs.1.bias f4 [8]
000000 46 be c8 3a 82 d7 d0 bc f3 85 08 3d 59 be 4a 3d
       0.0015315495 -0.025493387 0.03333087 0.049497936
000010 16 46 30 3e 15 1e 92 3d 03 a4 a4 39 36 d3 56 bd
       0.17214236 0.07134644 0.00031402716 -0.05244752

convs.2.weight f4 [16, 8, 5, 5]
000000 82 60 2e 3d 0b 05 1a bd dc ef a0 bd 21 c1 42 bd
       0.042572506 -0.037602466 -0.078582495 -0.047547463
000010 22 75 c1 bd da 5c 3d 3d cf 93 00 3a 80 fc 3e bd
       -0.094461694 0.04623113 0.00049048377 -0.04662752
000020 04 1f 94 bd be b0 a6 bd f4 7c a1 3d 88 c1 8a 3c
       -0.07232478 -0.0813918 0.07885161 0.016937986
000030 dc 64 36 bd f4 24 38 bd bd 2e 42 3d 47 67 56 3c
       -0.04452978 -0.044957116 0.047407854 0.013086147
000040 8b 66 38 3d d3 b2 0c 3d 79 54 8e bc a4 19 95 bc
       0.045019668 0.034350228 -0.017374264 -0.018200703
000050 c9 52 a9 3a 9c 49 28 3d f6 a3 b8 3d a9 5d b0 bc
       0.0012918349 0.041085824 0.09015648 -0.021529036
000060 5d 70 05 3d 4c 40 08 bd 1a 3b d5 3c 7c 1f 99 3c
       0.03257786 -0.033264443 0.026029158 0.01869177
000070 39 06 75 bd 16 e2 06 3d 7a 29 c1 bc 34 0f 9b bd
       -0.059820388 0.032930456 -0.023579348 -0.07571259
000080 01 4d 87 bd b4 b6 5e bd 1b 46 68 bd e1 e2 f6 3c
       -0.06606484 -0.054373458 -0.056707483 0.030137481
000090 8b 80 9b 37 be ca 31 3d 59 ee 49 bd a7 ca 49 3c
       1.8537297e-05 0.04340624 -0.04929957 0.0123163825
0000a0 94 2a 93 bd c5 dd 50 3d b9 94 58 3c 02 a8 6c bd
       -0.071858555 0.050992746 0.013219052 -0.057777412
0000b0 6f b0 68 bd 24 f6 7a 3d fe 1a c6 3c 82 35 d5 3c
       -0.056808885 0.061269894 0.024182793 0.026026491
0000c0 94 98 03 bd 36 f7 82 bd 2c 6c 30 bd 65 d7 e9 3c
       -0.03212793 -0.06394808 -0.04307191 0.02854509
0000d0 3f 03 8a 3c 7a fc 91 3c 37 c9 4b 3c fe ab f6 3c
       0.016847251 0.017820586 0.01243811 0.03011131
0000e0 37 85 b3 3c 91 69 9d bd 8a 93 87 bc 96 c0 86 3d
       0.021914108 -0.07686151 -0.016549844 0.065797016
0000f0 23 8e c0 bd a8 53 ca bd f6 f7 89 3b ff b6 4c bd
       -0.094021104 -0.098792374 0.0042104675 -0.049979206
000100 dc 80 0f bd 53 b9 d5 bc 8f 9a 08 bd d1 27 f5 bc
       -0.035035 -0.026089346 -0.033350524 -0.029926213
000110 37 d1 50 bc c4 7c 64 3d b5 56 92 bd 08 b4 a5 bd
       -0.012745193 0.05578305 -0.07145444 -0.08090979
000120 51 7f 4d 3d ca c7 00 bd 75 27 3e bd 4e 38 0b bd
       0.050170247 -0.031440534 -0.046424348 -0.033989243
000130 97 d9 71 bc 2b 0c 1b bd 71 3f fe 3c b7 e8 82 bd
       -0.01476135 -0.0378534 0.03103611 -0.06392043
000140 84 c0 6a 3d ed 66 85 3d 5a 83 89 3d 6d 43 d3 bc
       0.057312503 0.06513772 0.067145064 -0.025788987
000150 c7 7b 6b bc 28 83 18 3d 4c 46 7a 3d 40 2e 3a 3d
       -0.014372773 0.037234455 0.061102197 0.045454264
000160 af be 84 bd 95 22 5b bc 64 c4 5f bd 50 e6 86 3c
       -0.064816825 -0.013374944 -0.054630652 0.016467243
000170 56 5f c9 3c f1 70 6e 3d 13 cb 7e bd c4 94 28 3c
       0.024581593 0.058213178 -0.062205385 0.010289375
000180 66 22 a9 3a ff 2b b1 3c 6d ec 6c bc c7 05 c6 bc
       0.0012903928 0.021627424 -0.014460665 -0.024172677
000190 bc 55 de bc a2 5a b3 bb 9b a1 84 bc 93 c2 91 b9
       -0.02714049 -0.0054734508 -0.01619034 -0.00027801524
0001a0 c9 8b ae 3c 7e 80 a8 bd 33 a0 97 bd dc 08 02 bc
       0.02130689 -0.08227633 -0.074036025 -0.007936683
0001b0 75 b8 4c bd 61 cb 0c 3c 05 13 26 3d de 1b 6a bd
       -0.0499806 0.008593411 0.040545482 -0.057155482
0001c0 ce 06 5a bd fe 2d ce 3b 6a b8 ea bb 58 0c 2f bc
       -0.053229146 0.006292104 -0.007163097 -0.010684095
0001d0 3d 49 7b 3b bb 7e b4 3c fe f8 a2 3c 5d 0e 4c 3d
       0.0038343214 0.022033086 0.01989412 0.049818385
0001e0 f1 2f 8e bd 1e fe 1b 3d 2f 3f 96 bd e8 44 78 bd
       -0.06942738 0.038084142 -0.0733627 -0.06061259
0001f0 42 4d 8c 3c 88 94 91 bd 7c 51 49 3c ca fd cf bc
       0.017126683 -0.07108408 0.012287494 -0.02538957
000200 df de 91 3c 66 39 9b 3c f4 41 58 3d 40 4c 92 ba
       0.017806469 0.018948268 0.052797273 -0.001116164
000210 cf 5d e5 3c e8 e2 20 3d 74 65 1c 3d 27 3e 41 bd
       0.027998833 0.039278895 0.03818269 -0.047178414
000220 f6 01 4c 3c 94 84 ad 3b 8e d9 5f 3d 20 a6 8a bd
       0.012451639 0.0052953456 0.054650836 -0.06769967
000230 30 40 6b bd 36 a6 5c 3d 60 c3 3d bd 84 5e 01 bc
       -0.05743426 0.05386945 -0.046328902 -0.007896069
000240 e6 12 8c bd bd 63 e8 3c 9c ef 17 3d 0c b5 88 3d
       -0.06839542 0.028367871 0.037093744 0.06675157
000250 40 d2 65 bc 62 bf b1 3c eb c4 18 bc 75 d2 7a bd
       -0.014027178 0.021697704 -0.009324293 -0.061235864
000260 fc c4 2c 3d f4 98 46 bd 26 3e 39 3c 5c 0b 10 3d
       0.042180046 -0.04848571 0.011306321 0.035167083
000270 05 54 13 bd 39 ca e4 bc 94 3c 49 3d eb c2 32 3d
       -0.0359688 -0.027928459 0.049130037 0.04364292
000280 a0 4f 21 bd 00 e8 cf bc f4 fb 82 bd 1e 43 7a 3c
       -0.039382577 -0.02537918 -0.063957125 0.015274791
000290 e1 23 d6 bb 8c b6 4c bd 04 dd 8a bd 6d c5 25 3d
       -0.006535039 -0.049978778 -0.06780437 0.040471483
0002a0 f6 76 8a 3d 71 0f a8 bc a2 13 92 bd 9a 1f 0e ba
       0.06760971 -0.020515176 -0.07132651 -0.0005421579
0002b0 bf 09 d1 bc 95 fa 77 3d ed 76 04 3d 3c 58 39 3d
       -0.025517343 0.060541708 0.03233998 0.045250162
0002c0 9b 17 4b 3c 3f 65 74 3d 79 f4 6d 3d 69 2b 18 bd
       0.012395765 0.05966687 0.058094475 -0.037150774
0002d0 8c f6 71 bc b0 31 62 3d dd b2 33 3d 68 a5 a0 bc
       -0.014768254 0.055223167 0.04387175 -0.019610122
0002e0 23 18 66 3d f3 34 34 bd 78 2b 9e 3c 93 03 b7 bb
       0.056175362 -0.04399581 0.019307837 -0.005585143
0002f0 7a e9 29 3d be af 49 bd 18 62 36 bd 5a 2f 7a bd
       0.041482426 -0.049239866 -0.044527143 -0.061080314
000300 18 ac ee bc e6 08 0b bd 1c d6 6c 3d dc 4c 99 3c
       -0.029134795 -0.033944033 0.057821378 0.018713407
000310 8a 18 00 3c f3 5e a0 3d b2 f4 99 3d 47 55 5f 3c
       0.007818351 0.0783061 0.07517375 0.013631172
000320 e5 a3 43 bd 94 37 2f 3d 66 07 01 bd e2 43 31 bd
       -0.047763724 0.042777613 -0.031501196 -0.04327763
000330 6b bb 2b 3d b1 32 1e 3c 6d 92 4b 3d 2d 97 99 3c
       0.041926783 0.00965564 0.04970019 0.018748844
000340 e3 0c 99 bc 30 44 2c 3d 41 df 2e bd 91 fd 08 bc
       -0.018682903 0.042057216 -0.04269338 -0.008361236
000350 dc fb b4 bc 24 95 c6 3c e8 9f 93 bb d0 6b 4d 3d
       -0.022092752 0.024241038 -0.0045051463 0.050151646
000360 75 54 83 bc 56 9c 12 bd 76 8e c5 3c 25 27 d2 3c
       -0.016031483 -0.035793625 0.024115782 0.025653431
000370 db 28 0c bd 76 84 6d 3d 95 e6 78 bd f1 fb 5e 3c
       -0.03421865 0.057987653 -0.060766775 0.013609872
000380 74 47 4e 3d 77 ed 34 3c 45 47 4b bd e9 e7 0d 39
       0.05036111 0.011042944 -0.049628515 0.00013533201
000390 bc 7f 46 bd 3f 0a 01 3d 97 6a f2 bc 6c d9 70 bd
       -0.04846166 0.031503912 -0.029591842 -0.0588011
0003a0 ff f4 0d bd 0a a4 43 3d af 1f 34 3d 74 7e b7 bc
       -0.034657475 0.04776386 0.04397553 -0.022399165
0003b0 fa 36 5a 3c 97 f3 9f 3c 71 2b 20 3d 43 ed 07 bd
       0.0133187715 0.019525332 0.03910393 -0.033185255
0003c0 b1 bd 95 3d 80 d5 17 bd 6c 34 d6 3a cc 07 a3 3c
       0.073115714 -0.037068844 0.0016342527 0.019901179
0003d0 7f f2 ec 3c 57 16 bc 3d fe ba 67 3d 31 f3 0c 3c
       0.028924225 0.091839485 0.056574814 0.008602903
0003e0 a6 b3 55 3d 9f 66 a0 3d 7d 00 7a bd 89 cc 24 bc
       0.05217328 0.078320734 -0.061035622 -0.010058531
0003f0 1c f1 84 bd 91 55 99 3c 78 3c 80 3c ae 0e 14 bb
       -0.064913005 0.018717559 0.015653834 -0.0022591758

convs.2.bias f4 [16]
000000 ba 25 85 3d 8a 44 e5 3c 57 a2 66 3d 65 28 4d 3d
       0.065013364 0.027986784 0.056307163 0.05008735
000010 50 9e c9 3d 3a c3 6b 3d b1 28 ba bc a0 8e a5 3b
       0.09844649 0.05755923 -0.022724481 0.0050524026
000020 8b 43 0a 3d 83 dc 0d bd fe 42 1e bd a9 8d 87 bc
       0.03375582 -0.034634124 -0.038638107 -0.016547041
000030 0d ad c9 bc a2 68 d2 3c d5 b6 d0 3c 2c fb ba 3d
       -0.02461865 0.025684658 0.025477806 0.091299385

fc.weight f4 [10, 4096]
000000 b4 19 3c 3b 7a 89 f1 bb 4e 07 ed ba 02 19 1c 3c
       0.0028701844 -0.007371125 -0.0018083842 0.009527447
000010 76 fe a3 3b ed b0 1e 3c d2 0b ab b7 64 87 f9 3b
       0.0050046993 0.009685737 -2.0390293e-05 0.007615017
000020 4b ee c4 3a 15 57 55 bc 21 20 24 bc 69 96 44 ba
       0.001502463 -0.01302125 -0.010017426 -0.00074992195
000030 36 9f 06 bc e6 59 b5 bc 4c 8d 30 bc 15 24 d1 bb
       -0.00821667 -0.022137593 -0.010775875 -0.006382475
000040 11 5c 4f 3c d8 f2 60 bc d3 02 0a 3c 29 c0 11 3b
       0.012656228 -0.013729773 0.008423525 0.002223978
000050 c2 cb ea bb f6 58 06 3c 4f eb 92 3c bb d8 eb 38
       -0.007165403 0.008199921 0.01793447 0.000112460424
000060 cb 36 a5 bb cb 4d 01 3b 27 dd 8e bc 4e c1 92 bc
       -0.005041932 0.0019730206 -0.017439438 -0.01791444
000070 0d 75 05 bc 52 87 a3 3b c1 9d 60 bc ae a9 b6 ba
       -0.008145583 0.0049904967 -0.013709486 -0.0013936067
000080 f4 67 44 3c 26 03 fe bb 34 20 d6 3b 6d 10 9f 3c
       0.011987675 -0.00775184 0.0065346006 0.019417012
000090 ce 70 68 3b 2b 96 b8 3c b1 45 7b 3b d1 5d fe 3b
       0.0035467627 0.022532543 0.00383411 0.0077626486
0000a0 64 af d2 3b 3a c5 bf 3b 74 98 51 3a 85 e5 ba bc
       0.0064295996 0.0058523687 0.00079954346 -0.022814522
0000b0 dc 73 d9 3b f9 2f 11 bb 82 e0 1d 3a 89 8b c2 bb
       0.006636126 -0.0022153838 0.0006022529 -0.005937044
0000c0 5b 88 0f bc f4 d0 13 ba 6c 90 f1 bb f4 b1 01 3c
       -0.008760537 -0.00056387414 -0.0073719528 0.0079159625
0000d0 cb eb e6 3b 42 50 bf 3c 94 cb c0 3b 2d 1d ce 3c
       0.0070471517 0.0233537 0.0058836434 0.025160396
0000e0 5b f0 24 3c 01 70 c1 bb 0a 34 ea 3b 2f a3 8a 39
       0.010067071 -0.0059032445 0.007147317 0.00026442992
0000f0 2d cc a8 3b 99 df bb ba 50 bd 7c bb 03 03 e9 3c
       0.005151293 -0.0014333605 -0.0038564987 0.028443819
000100 7e 2c cd 3c 7f 5c 9d 3c c7 4b 7e 3c 13 e4 af 3b
       0.02504563 0.019209145 0.015520996 0.0053677647
000110 37 d6 b1 3a f1 20 ec 3b b3 1e ae 3c 53 9c ae 3c
       0.0013567869 0.0072060754 0.021254873 0.021314776
000120 3f b0 1f bc 68 1c 0c bc 5f 50 c2 bb 10 22 ae ba
       -0.00974661 -0.008551694 -0.005929991 -0.0013285298
000130 28 3a cb bb ae 80 ec bb 6d 01 66 3c c5 b9 50 3c
       -0.006202001 -0.0072174883 0.014038426 0.012739603
000140 ec 45 72 3c d5 84 bb 3c 24 3f 8b 3c fe aa c2 3c
       0.0147871785 0.022890488 0.016997881 0.023763176
000150 b6 58 bf 3a 47 b4 b3 3c 73 07 c1 3c b9 69 4e 3b
       0.0014598581 0.021936549 0.023563122 0.003149612
000160 d4 fa a1 bc 69 48 d7 bc 12 55 f4 bc 57 7e be 3b
       -0.019772924 -0.026279645 -0.029825721 0.0058134007
000170 52 f7 2a 3b 9b 6a ed ba b5 43 d6 3b 13 f9 ff 3c
       0.0026087356 -0.0018113436 0.006538833 0.031246698
000180 18 e1 e6 3c e5 99 43 3c 07 07 fd 3c e0 72 1d 3c
       0.028183505 0.011938547 0.03088714 0.009609908
000190 18 6f 13 3c 15 bc fb 3c f2 05 c5 3c 95 d6 4a bb
       0.008998655 0.030729333 0.024050687 -0.0030950655
0001a0 20 67 10 bb 0c e5 0a bd c7 ce 03 bc 2c 58 49 3b
       -0.0022034124 -0.033909842 -0.008044905 0.003072272
0001b0 6f 4e 42 bc 16 08 9e ba 56 31 45 3c 7d b3 1a 3c
       -0.01185952 -0.0012056853 0.012035688 0.009442207
0001c0 0c 19 c7 3c 74 e3 8d 3b cd ea 2e 3c 4b 76 03 3c
       0.024303935 0.004330093 0.010676098 0.008023809
0001d0 6d 52 8e b9 ed ed 4c 3c 7b cc 1a b9 2d 77 e3 39
       -0.00027145763 0.012507898 -0.0001476276 0.00043385607
0001e0 54 9e f4 bc 1e 2e 02 bd 34 78 88 bc 0e 01 86 bc
       -0.029860653 -0.031782262 -0.01665888 -0.016357925
0001f0 50 38 46 bc 13 c6 09 bc 6a 45 cd bb 4f 8c 69 3c
       -0.012098387 -0.008409041 -0.0062643783 0.014254644
000200 11 dc 88 3c db 7f 09 3d 24 29 c9 3c b8 0c 63 3b
       0.016706498 0.033569198 0.02455575 0.0034645032
000210 d9 4e 1f 3c b0 64 35 3c c7 e1 70 bc 3c 4f d2 bb
       0.009723389 0.011071369 -0.014702267 -0.006418137
000220 8c ba 9b bc 64 02 0e bc 2c c8 18 bc 94 85 4c 3c
       -0.01900985 -0.008667562 -0.009325068 0.012483019
000230 2c c1 63 bc 6f d3 fa 3a fb 70 b0 b9 c7 6e 84 3c
       -0.013901036 0.0019136498 -0.00033653513 0.016166104
000240 65 c0 81 3c 55 43 8c 3b 70 79 d0 3a eb 19 84 3b
       0.015838811 0.0042804875 0.0015905332 0.00403141
000250 a9 91 22 bc dc 20 2c bc f3 cb af bc 2a 23 5b bc
       -0.009922423 -0.010505881 -0.021459555 -0.013375083
000260 d6 da 94 ba 3d f9 76 3b 07 de d3 3b 99 bd 7c bc
       -0.0011356722 0.0037685179 0.0064656767 -0.015426063
000270 c9 3a df bb 87 cb e8 bb e6 7c 0f bc 91 f7 f1 bb
       -0.0068124277 -0.0071043405 -0.008757805 -0.0073842485
000280 c8 86 a0 3c ad b9 ee 3c 57 d0 a9 3c 60 5b 99 3c
       0.019595519 0.029141271 0.020729227 0.018720329
000290 c8 bc 8f bc a0 83 65 bc 8a fb 08 bb 62 a2 ac ba
       -0.017546073 -0.014008433 -0.0020901882 -0.0013170952
0002a0 dc 5d 5a ba f0 25 3b bc ff 87 14 3c 3a 64 30 3c
       -0.0008330026 -0.011422619 0.009065627 0.010766083
0002b0 ee 3f 0f bb a5 46 99 3c 0d 54 0b bc 9f 35 1e 3a
       -0.0021858173 0.018710444 -0.008503926 0.0006035212
0002c0 33 8a ab 3c 91 b6 ab 3b 2f 61 be 3c c0 c4 16 bc
       0.020939922 0.0052402695 0.0232397 -0.009202182
0002d0 73 e2 cc bc 44 a0 0b bc aa be f2 bc f4 16 8a bc
       -0.025010323 -0.008522097 -0.029631931 -0.016856648
0002e0 ec 5c d5 bc cf 5b f4 bb f7 a2 43 3c 1a e1 31 bc
       -0.026045285 -0.0074572335 0.011940709 -0.010856891
0002f0 55 de 45 3a 28 84 4b bc 79 ae cb 3b a9 50 0c 3c
       0.00075480837 -0.012421645 0.006215867 0.008564153
000300 33 f8 a4 3c 6e 93 9e 3c 16 e7 98 b9 53 3a 4d bc
       0.020137882 0.01935741 -0.00029163872 -0.012526113
000310 4d 9f 1f bc 06 51 2e bc 2f 82 1b bd 2e a1 ea bc
       -0.00974257 -0.010639435 -0.03796595 -0.02864131
000320 93 00 5e bc aa 6a 92 bc 26 25 32 bc ca 64 83 bc
       -0.013549942 -0.017873127 -0.010873115 -0.01603927
000330 5f 81 43 3b 30 a1 8c bb 29 c9 2a bc b3 05 1a 3b
       0.002983175 -0.004291676 -0.010423937 0.0023501932
000340 ad 1c 21 3c b6 86 b5 3c ad 80 34 3c 6d 9d 2c bb
       0.009833497 0.022158962 0.011017007 -0.002633895
000350 bb 66 14 3b 9b b7 e7 bc 72 f4 9a bc ef fb 01 bd
       0.002264424 -0.028285792 -0.018915389 -0.031734403
000360 38 0d cc bc 7b 15 d6 bc f5 da cc bc 53 62 be bc
       -0.024908647 -0.02613329 -0.02500675 -0.023240244
000370 79 30 77 39 48 86 10 bc b1 e6 c4 ba 72 93 03 bc
       0.00023573813 -0.008821078 -0.0015022365 -0.008030759
000380 c9 f2 50 bc 0a 13 15 bc 9d 28 27 bc 84 3e 98 bc
       -0.012753197 -0.009098778 -0.010202554 -0.018584497
000390 5b 8c 57 bc 96 75 c9 bc c0 55 ee bc 55 25 e3 bc
       -0.013156022 -0.024592202 -0.029093623 -0.027727762
0003a0 ef 6a ee bc 25 df 02 bd ac c2 c6 bc 63 46 91 bc
       -0.029103724 -0.03195109 -0.024262749 -0.017733758
0003b0 b7 27 f5 bc ec 10 9a bb ff 8f f6 bc ce e4 ed 3a
       -0.029926164 -0.0047017243 -0.03009796 0.0018149854
0003c0 2f f8 f9 bb c8 28 04 3c 68 41 b6 3b 01 62 87 bc
       -0.0076284627 0.008066364 0.0055619963 -0.016526224
0003d0 01 f9 69 b9 f6 17 70 bb f6 5d 18 bd f0 33 93 bc
       -0.00022313373 -0.0036635376 -0.037198983 -0.017969102
0003e0 01 3d 2a bc 54 7a e6 bc 22 dd 49 bd 09 04 e7 bc
       -0.010390521 -0.028134502 -0.049283154 -0.028200166
0003f0 ba 67 09 bd 20 49 fb bc 05 e4 e9 bc 18 b9 b1 bc
       -0.033546187 -0.030674517 -0.028551111 -0.021694705

fc.bias f4 [10]
000000 64 45 7f bc 5a 7a d3 bb a3 08 cb 3c e7 58 b2 3b
       -0.015580509 -0.0064537944 0.024784392 0.005442727
000010 a9 d0 67 bb c9 4c b1 bc fe a8 b3 bc 17 00 34 3b
       -0.0035372174 -0.02164306 -0.021931168 0.0027465874
000020 9b 0c ef 3c 3e b2 f2 3b
       0.029180815 0.007406502

batchnorm.weight f4 [4096]
000000 8b 04 80 3f 50 ff 7f 3f 84 46 80 3f ff 32 80 3f
       1.0001386 0.9999895 1.002152 1.0015563
000010 c5 36 80 3f 80 2e 80 3f b5 2d 80 3f db 31 80 3f
       1.0016714 1.0014191 1.0013949 1.0015215
000020 ba 11 80 3f 31 1f 80 3f ff 23 80 3f 97 11 80 3f
       1.000541 1.0009519 1.0010985 1.0005368
000030 99 39 80 3f a5 1d 80 3f d7 17 80 3f 4f 43 80 3f
       1.0017577 1.0009047 1.0007275 1.0020541
000040 be 14 80 3f d1 21 80 3f 61 1f 80 3f 83 00 80 3f
       1.000633 1.001032 1.0009576 1.0000156
000050 4b 0c 80 3f 02 17 80 3f a9 16 80 3f ce 0e 80 3f
       1.0003752 1.0007021 1.0006915 1.0004518
000060 05 06 80 3f 81 11 80 3f a4 30 80 3f 2e 16 80 3f
       1.0001837 1.0005342 1.0014844 1.0006769
000070 ee 05 80 3f a7 06 80 3f f0 10 80 3f 68 19 80 3f
       1.000181 1.000203 1.0005169 1.0007753
000080 85 16 80 3f 4b 2b 80 3f 54 24 80 3f d7 11 80 3f
       1.0006872 1.0013212 1.0011086 1.0005444
000090 b1 15 80 3f fd 15 80 3f 98 09 80 3f 1f 11 80 3f
       1.000662 1.000671 1.0002928 1.0005225
0000a0 ba 14 80 3f bf 04 80 3f 0b 07 80 3f e6 05 80 3f
       1.0006325 1.0001448 1.0002149 1.00018
0000b0 11 0c 80 3f 7f 11 80 3f e2 06 80 3f e0 1b 80 3f
       1.0003682 1.0005339 1.00021 1.0008507
0000c0 ef 11 80 3f 50 20 80 3f 55 31 80 3f 32 0e 80 3f
       1.0005473 1.0009861 1.0015055 1.0004332
0000d0 fe 0a 80 3f f4 34 80 3f e2 0a 80 3f 05 33 80 3f
       1.0003355 1.001616 1.0003321 1.001557
0000e0 2e 14 80 3f af 17 80 3f 4a 0f 80 3f 63 06 80 3f
       1.0006158 1.0007228 1.0004666 1.0001949
0000f0 89 05 80 3f 5e 0a 80 3f 1b 0a 80 3f 8f 1d 80 3f
       1.0001689 1.0003164 1.0003084 1.000902
000100 04 5e 80 3f 92 4d 80 3f 18 1e 80 3f 5a 15 80 3f
       1.0028691 1.0023673 1.0009184 1.0006516
000110 63 13 80 3f e7 15 80 3f 43 08 80 3f 8f 24 80 3f
       1.0005916 1.0006684 1.0002521 1.0011157
000120 a9 16 80 3f 40 2d 80 3f 74 11 80 3f 20 0c 80 3f
       1.0006915 1.0013809 1.0005326 1.00037
000130 ca 03 80 3f e6 04 80 3f bc 0a 80 3f f3 02 80 3f
       1.0001156 1.0001495 1.0003276 1.00009
000140 52 6e 80 3f 18 3f 80 3f e4 29 80 3f fe 18 80 3f
       1.0033667 1.0019255 1.0012784 1.0007627
000150 65 08 80 3f 86 20 80 3f 22 1f 80 3f 65 1c 80 3f
       1.0002562 1.0009925 1.0009501 1.0008665
000160 ab 2c 80 3f c6 49 80 3f 83 38 80 3f 81 11 80 3f
       1.0013632 1.0022514 1.0017246 1.0005342
000170 c7 0d 80 3f d4 20 80 3f a0 22 80 3f 39 27 80 3f
       1.0004205 1.0010018 1.0010567 1.001197
000180 2f 19 80 3f a2 38 80 3f cb 3f 80 3f 44 0e 80 3f
       1.0007685 1.0017283 1.0019468 1.0004354
000190 77 0e 80 3f 65 12 80 3f 91 2a 80 3f 9e 32 80 3f
       1.0004414 1.0005614 1.001299 1.0015447
0001a0 ef 1e 80 3f d5 46 80 3f bd 24 80 3f f1 25 80 3f
       1.000944 1.0021616 1.0011212 1.0011579
0001b0 6d 0f 80 3f 76 29 80 3f 38 26 80 3f 8f 15 80 3f
       1.0004708 1.0012653 1.0011663 1.0006579
0001c0 03 4e 80 3f 82 19 80 3f c7 19 80 3f d3 21 80 3f
       1.0023807 1.0007784 1.0007867 1.0010322
0001d0 07 11 80 3f a4 1e 80 3f d1 29 80 3f 21 26 80 3f
       1.0005196 1.0009351 1.0012761 1.0011636
0001e0 e1 2c 80 3f 6b 0c 80 3f a4 09 80 3f 40 17 80 3f
       1.0013696 1.000379 1.0002942 1.0007095
0001f0 fc 0f 80 3f a3 1d 80 3f 7a 42 80 3f 20 30 80 3f
       1.0004878 1.0009044 1.0020287 1.0014687
000200 0e 1d 80 3f 3a 37 80 3f da 25 80 3f 46 15 80 3f
       1.0008867 1.0016854 1.0011551 1.0006492
000210 4d 1c 80 3f 25 37 80 3f fa 18 80 3f c3 29 80 3f
       1.0008637 1.0016829 1.0007622 1.0012745
000220 6f 18 80 3f 3a 08 80 3f c0 1a 80 3f bb 09 80 3f
       1.0007457 1.000251 1.0008163 1.000297
000230 03 06 80 3f 20 14 80 3f 52 1f 80 3f 7e 26 80 3f
       1.0001835 1.0006142 1.0009558 1.0011747
000240 b1 25 80 3f c6 0f 80 3f 7f 1b 80 3f e3 43 80 3f
       1.0011503 1.0004814 1.0008391 1.0020717
000250 79 31 80 3f a1 1c 80 3f 43 1e 80 3f e5 19 80 3f
       1.0015098 1.0008737 1.0009235 1.0007902
000260 72 07 80 3f 8e 18 80 3f d7 0c 80 3f 61 fb 7f 3f
       1.0002272 1.0007493 1.0003918 0.9999295
000270 9e 03 80 3f 49 01 80 3f 3f 06 80 3f 0d 09 80 3f
       1.0001104 1.0000392 1.0001906 1.0002762
000280 1b 2d 80 3f b5 41 80 3f 69 3f 80 3f 45 54 80 3f
       1.0013765 1.0020052 1.0019351 1.0025717
000290 15 22 80 3f 1d 24 80 3f d1 03 80 3f 48 13 80 3f
       1.0010401 1.0011021 1.0001165 1.0005884
0002a0 f8 0b 80 3f 39 12 80 3f 50 21 80 3f 3d 08 80 3f
       1.0003653 1.0005561 1.0010166 1.0002514
0002b0 f9 01 80 3f a0 f9 7f 3f a3 f7 7f 3f 7f 05 80 3f
       1.0000602 0.9999027 0.9998724 1.0001677
0002c0 cd 62 80 3f ae 59 80 3f b2 76 80 3f 3f 4b 80 3f
       1.0030152 1.0027368 1.0036223 1.0022963
0002d0 97 22 80 3f 4f 1d 80 3f 43 32 80 3f c2 1c 80 3f
       1.0010556 1.0008944 1.0015339 1.0008776
0002e0 27 2c 80 3f 4e 33 80 3f 52 13 80 3f 74 09 80 3f
       1.0013474 1.0015657 1.0005896 1.0002885
0002f0 6b 0a 80 3f 37 0a 80 3f 3d 04 80 3f 86 01 80 3f
       1.0003179 1.0003117 1.0001293 1.0000465
000300 27 6c 80 3f b7 3e 80 3f 23 5d 80 3f fa 27 80 3f
       1.0033005 1.0019139 1.0028423 1.00122
000310 47 3a 80 3f 7e 17 80 3f 20 37 80 3f 31 30 80 3f
       1.0017785 1.0007169 1.0016823 1.0014707
000320 dd 2f 80 3f 8c 3a 80 3f db 21 80 3f b9 0b 80 3f
       1.0014607 1.0017867 1.0010332 1.0003577
000330 7c f4 7f 3f 1d 04 80 3f 31 05 80 3f 83 0c 80 3f
       0.9998243 1.0001255 1.0001584 1.0003818
000340 4f 78 80 3f 9b 4e 80 3f 6d 48 80 3f bb 18 80 3f
       1.0036715 1.0023988 1.0022103 1.0007547
000350 ad 48 80 3f fe 3a 80 3f 91 5b 80 3f 83 68 80 3f
       1.0022179 1.0018003 1.0027944 1.0031894
000360 c5 5e 80 3f f1 4d 80 3f b7 35 80 3f e8 1c 80 3f
       1.0028921 1.0023786 1.0016392 1.0008821
000370 60 09 80 3f 7a 00 80 3f 19 06 80 3f 53 16 80 3f
       1.0002861 1.0000145 1.0001861 1.0006813
000380 ad 56 80 3f 0f 24 80 3f 05 2e 80 3f 65 15 80 3f
       1.0026451 1.0011004 1.0014044 1.0006529
000390 95 5b 80 3f 48 56 80 3f b9 64 80 3f 99 97 80 3f
       1.0027949 1.0026331 1.0030738 1.0046264
0003a0 12 96 80 3f bc 5d 80 3f 1b 42 80 3f 13 4e 80 3f
       1.0045798 1.0028605 1.0020174 1.0023826
0003b0 58 1c 80 3f 7d 09 80 3f 56 19 80 3f a5 07 80 3f
       1.000865 1.0002896 1.0007732 1.0002333
0003c0 a7 0a 80 3f 93 2d 80 3f 2c 44 80 3f 18 53 80 3f
       1.0003251 1.0013908 1.0020804 1.0025358
0003d0 7e 64 80 3f 35 53 80 3f 9b 68 80 3f 02 76 80 3f
       1.0030668 1.0025393 1.0031923 1.0036013
0003e0 51 7c 80 3f 88 c4 80 3f 88 a1 80 3f 0a 40 80 3f
       1.0037938 1.0059977 1.0049295 1.0019543
0003f0 ef 3a 80 3f f8 26 80 3f fc 10 80 3f 7c 08 80 3f
       1.0017985 1.0011892 1.0005183 1.0002589

batchnorm.bias f4 [4096]
000000 e2 43 bd b9 4c a6 37 3a d6 ff 93 ba e9 64 ce ba
       -0.00036099466 0.0007005676 -0.0011291455 -0.0015746626
000010 29 7c 9c ba 07 68 c6 ba eb e4 05 ba 0d 5f 4d ba
       -0.0011938858 -0.0015137204 -0.0005107659 -0.0007834293
000020 57 7a 24 ba f0 10 87 b9 16 3a 22 ba 1b d8 8f 39
       -0.00062743336 -0.00025761826 -0.0006188465 0.00027436097
000030 51 0e 61 ba 6a e3 85 3a 32 61 97 3a a7 fa 1b ba
       -0.0008585202 0.0010214869 0.0011549352 -0.0005950131
000040 ad 76 4c b9 81 7b 8f b9 39 dc 0c ba ef 9f cb 38
       -0.00019499166 -0.00027367103 -0.0005373392 9.709584e-05
000050 2e 93 7d 39 50 e3 a7 b9 99 6a 3d ba d5 ef 4c ba
       0.00024182789 -0.00032022083 -0.0007225662 -0.000781772
000060 d0 15 81 ba 7c da 83 b9 14 4c 2c ba 2a dc 1e ba
       -0.000984842 -0.0002514905 -0.0006572616 -0.00060600287
000070 4b d8 bc 39 56 4e 98 3a ca 02 89 3a 29 15 59 39
       0.00036019305 0.0011620026 0.0010453102 0.00020702615
000080 39 1c 91 ba 95 67 d5 39 84 ad b8 b8 a0 2e e6 b9
       -0.0011071033 0.000407037 -8.8061235e-05 -0.00043903757
000090 3d 31 74 ba 69 2e 02 ba 69 dc 69 b9 98 90 0a ba
       -0.00093151984 -0.0004966022 -0.00022302721 -0.00052858284
0000a0 d4 03 29 ba 3a 68 ce b8 49 5c a1 39 7b 3b b4 b9
       -0.0006447409 -9.842259e-05 0.0003077707 -0.00034376592
0000b0 3c c6 3a b9 58 ba f2 b7 a2 f9 53 3a 16 b7 56 3a
       -0.0001781219 -2.8935421e-05 0.00080862094 0.0008190734
0000c0 84 a5 96 b9 36 f8 4b 3a ee 82 cf ba 91 fe 7f b9
       -0.00028733548 0.0007780822 -0.0015831867 -0.00024413528
0000d0 35 a1 42 38 97 5e 73 b9 f8 86 a2 3a 6b 9f 55 b9
       4.640334e-05 -0.00023209523 0.0012399843 -0.00020372651
0000e0 62 10 33 3a 70 52 8e ba ce 26 51 ba 09 74 15 3a
       0.00068307493 -0.0010858309 -0.00079784996 0.00057011895
0000f0 3f 4c 4c b9 c8 3c 85 38 c6 66 68 b9 7e 8a 8d b8
       -0.0001948336 6.3532556e-05 -0.0002216353 -6.7492e-05
000100 a1 11 84 39 12 d6 d7 b8 5e c8 ce b9 a0 45 b5 ba
       0.00025190137 -0.000102918726 -0.00039440667 -0.0013829954
000110 55 17 b1 b9 d6 fc 36 b9 14 a3 d6 b9 fc e5 ef b9
       -0.00033777455 -0.00017451061 -0.00040938763 -0.00045756984
000120 5b 07 2c ba 37 84 0f ba a7 1e 65 38 4d 87 17 ba
       -0.00065623753 -0.00054747186 5.4626402e-05 -0.0005780354
000130 1b cf 29 ba 6d 9b f8 b8 0f 7e 48 ba d6 ee b6 3a
       -0.00064776995 -0.00011854512 -0.0007648179 0.0013956677
000140 da 7f 00 ba 22 7c 96 ba d3 eb 17 ba f9 67 32 ba
       -0.0004901864 -0.0011481086 -0.00057953334 -0.0006805654
000150 96 de e9 b9 ab 9e 21 ba 66 b9 d5 39 0b cc a7 3a
       -0.00044607063 -0.0006165306 0.00040764658 0.0012801898
000160 66 82 93 b9 a6 92 ab ba be ad 4d ba 48 12 41 b9
       -0.0002813518 -0.0013089969 -0.0007846019 -0.00018412725
000170 e9 2d 0c ba 83 1d e1 b9 b4 e0 e3 39 1a b6 34 ba
       -0.00053474173 -0.00042937332 0.0004346423 -0.00068935903
000180 c6 29 55 ba f7 8c ac ba a1 c9 92 ba 07 d5 92 ba
       -0.000813153 -0.0013164569 -0.0011199006 -0.0011202403
000190 a3 52 79 ba 8b dc 8b ba 88 fd c0 39 26 e7 f6 b3
       -0.000951091 -0.0010670585 0.0003680999 -1.1497313e-07
0001a0 85 a2 4a b9 93 c4 aa ba 1d b5 35 b9 ff e5 a4 b9
       -0.00019324764 -0.0013028554 -0.00017328975 -0.00031451878
0001b0 42 34 b2 39 ed 15 8e ba 22 9b 9e ba a2 d4 c3 ba
       0.0003398974 -0.0010840275 -0.0012100677 -0.0014940689
0001c0 b5 dd d8 ba f1 d9 9b ba 71 54 fe ba 99 85 f9 ba
       -0.0016545566 -0.0011890513 -0.0019403828 -0.0019037008
0001d0 3a ff 9f b9 24 6f 79 3a 22 ca cf 39 78 17 aa ba
       -0.00030517002 0.00095151574 0.00039632717 -0.0012976965
0001e0 e5 04 95 b9 3d aa b6 b8 9c f9 11 ba 3f 32 04 b8
       -0.0002842314 -8.7101456e-05 -0.0005568506 -3.1518048e-05
0001f0 63 e8 a2 b7 d2 97 a4 ba f7 6a 29 bb b5 c2 01 bb
       -1.9420118e-05 -0.0012557453 -0.002585111 -0.0019799892
000200 77 88 2e ba f7 8f cd ba 5b b0 a0 ba af 75 2c ba
       -0.0006657908 -0.0015683164 -0.0012259589 -0.00065788155
000210 84 3f cf b9 c4 f3 7e 39 69 83 15 3a 85 3c d6 b9
       -0.0003952944 0.00024314137 0.00057034806 -0.0004086235
000220 c6 ff 03 b9 fd 65 01 ba fd 55 91 3a f5 d4 20 b9
       -0.00012588417 -0.0004936157 0.0011088249 -0.00015338122
000230 fe 10 91 b8 57 81 d3 ba b4 b7 e0 ba 28 97 e5 ba
       -6.917304e-05 -0.0016136569 -0.0017144592 -0.0017516362
000240 2f 2c ca b9 b6 73 8e b9 05 d8 6c ba ce cb 0f 39
       -0.00038561362 -0.00027170562 -0.0009034875 0.00013713466
000250 16 c8 20 3a 6e d3 33 3a dd 80 dc b9 40 2a 01 b9
       0.0006133331 0.00068598136 -0.0004205768 -0.00012318138
000260 14 2e 72 b9 55 32 18 ba 26 aa a4 b9 da ef a4 39
       -0.00023096084 -0.000580584 -0.00031407288 0.0003145922
000270 70 24 5c ba dd b6 9a ba 45 a6 f9 b8 75 9a df ba
       -0.00083977636 -0.0011803765 -0.00011904215 -0.0017059582
000280 c7 10 12 3a eb 48 04 ba c7 a4 cb 39 ed 92 34 3a
       0.0005571958 -0.0005046266 0.00038841946 0.0006888349
000290 ba 16 d8 39 3b 1d 8e ba c9 2b d8 b8 1a dd e8 ba
       0.00041215663 -0.0010842452 -0.00010307838 -0.0017766089
0002a0 8c 2e 2b 3a 01 21 50 39 d7 56 3f ba ee 87 2b ba
       0.00065300683 0.0001984872 -0.0007299012 -0.00065433874
0002b0 9a 89 8b b9 38 8e 9f b9 3c e8 c6 38 e0 8d 72 3a
       -0.00026614667 -0.00030432804 9.484633e-05 0.00092527084
0002c0 94 96 cd 3a 27 4d d3 39 fa 17 d7 3a 4a 7a 5c 39
       0.0015685135 0.0004030254 0.0016410344 0.00021026391
0002d0 18 bd 24 39 87 79 48 38 3e 40 cc b9 58 74 5b ba
       0.00015710702 4.7796897e-05 -0.00038957776 -0.00083715236
0002e0 0c 16 0a b6 2c d1 80 39 c0 14 94 ba 85 17 41 ba
       -2.0576435e-06 0.00024569908 -0.0011297688 -0.00073658704
0002f0 53 6e 87 ba 22 21 28 3a 87 0a 89 b9 37 ab 29 ba
       -0.0010332562 0.00064136286 -0.0002613852 -0.00064723514
000300 8c 05 e2 3a c1 2b bc 3a 4c 42 d6 3a 1c d9 5c 3a
       0.0017244085 0.0014356301 0.0016346662 0.0008424686
000310 f7 62 4d ba 59 3c ad ba b1 2d 87 ba 18 f4 c7 b9
       -0.00078348763 -0.0013216838 -0.00103133 -0.00038138102
000320 4d e6 a6 ba dd 6e b5 ba c0 45 64 ba f8 d0 f9 b9
       -0.001273343 -0.0013842244 -0.00087079033 -0.00047648675
000330 2b ca 85 3a 9d 56 43 3a 5d 14 84 3a 6f ab f8 39
       0.0010207345 0.0007451566 0.001007687 0.00047429974
000340 6c f5 12 3b 33 3c c7 3a 5a ae 93 3a 1e fb 4d 39
       0.0022424115 0.0015200436 0.0011267171 0.00019643872
000350 f9 b0 06 bb ad 94 d0 b9 8f 7b a3 ba d8 bd c8 ba
       -0.0020552261 -0.00039783624 -0.0012472736 -0.0015315367
000360 6a 10 a4 ba 77 ad c3 b8 1d 21 b8 b9 62 92 cf b9
       -0.0012517099 -9.330635e-05 -0.00035119886 -0.0003959118
000370 f7 54 56 38 f5 7c 09 3a de 71 da b9 90 91 78 3a
       5.1100706e-05 0.00052447553 -0.00041665038 0.000948214
000380 f5 9a 10 3b 08 86 49 3a 69 e3 71 3a f2 dc c9 39
       0.0022065018 0.0007687514 0.0009227307 0.00038502325
000390 9f b0 da ba 38 2e d2 ba 99 8a 13 bb 7a 8f 1c bb
       -0.0016684717 -0.0016035503 -0.002251303 -0.002388923
0003a0 36 92 03 bb f7 de be ba 19 73 08 b9 f6 7b a8 ba
       -0.0020076162 -0.0014562298 -0.00013012848 -0.0012854326
0003b0 04 57 28 ba f0 ba b2 b8 c5 9a 84 b9 91 29 88 b8
       -0.0006421658 -8.522521e-05 -0.00025292314 -6.492728e-05
0003c0 b1 a1 71 3a 8d c6 2a 3a 28 69 cf ba 4d 1e eb ba
       0.00092175143 0.0006514572 -0.0015824186 -0.0017938107
0003d0 74 ea e7 ba f4 ac 27 bb 9e 65 a2 ba a8 28 aa ba
       -0.0017693774 -0.0025585266 -0.0012389903 -0.0012982087
0003e0 5a 60 0f bb 90 24 99 ba f5 89 4b ba 97 2e 90 ba
       -0.0021877498 -0.001168387 -0.00077643926 -0.0011000213
0003f0 e6 e1 2a ba 28 dc 42 ba f6 f3 b5 b9 1f 47 7e 39
       -0.0006518647 -0.00074333185 -0.00034704775 0.00024249822

batchnorm.running_mean f4 [4096]
000000 e0 f5 76 3a 0b c9 09 3b 67 c2 62 3b 55 97 a7 3b
       0.00094207935 0.0021024372 0.0034600736 0.0051144757
000010 c5 65 de 3b e7 58 03 3c 62 3e 17 3c dd 43 1d 3c
       0.006787034 0.008016801 0.009231182 0.009598699
000020 3c 77 30 3c 72 1e 4c 3c 79 b0 5f 3c 3b dd 70 3c
       0.010770615 0.012458431 0.013652914 0.014701183
000030 b6 68 80 3c 69 66 82 3c b2 c9 81 3c f5 c4 7e 3c
       0.01567493 0.015917974 0.015843246 0.015549888
000040 b3 65 22 3b ba e2 96 3b 54 a5 e2 3b ed fa 24 3c
       0.0024779856 0.0046046646 0.0069166813 0.010069591
000050 0d 05 53 3c 91 99 65 3c 3b 36 71 3c 9e bb 6d 3c
       0.012879622 0.014013664 0.014722402 0.014510063
000060 fb ac 7f 3c 3c 52 86 3c 12 05 95 3c 40 83 9e 3c
       0.015605207 0.016396634 0.018190894 0.019349694
000070 9f f4 aa 3c 21 91 b4 3c 7d ad b2 3c fb 7a b5 3c
       0.020868598 0.02204186 0.021811241 0.022153368
000080 bb 33 8e 3b 71 da f6 3b cd d2 4d 3c ac 5a 98 3c
       0.004339663 0.0075333645 0.012562466 0.018597923
000090 12 a6 b4 3c 6e ff c1 3c 8b 76 b6 3c c8 74 a5 3c
       0.022051845 0.023681369 0.022273323 0.020197287
0000a0 a8 a4 a4 3c 41 6c ac 3c 6a d3 b7 3c b4 cb c4 3c
       0.020098045 0.021047713 0.022439677 0.024022914
0000b0 63 50 d5 3c e4 25 e1 3c 4a 7c ed 3c b7 16 f3 3c
       0.026039308 0.027483888 0.02898993 0.029673917
0000c0 de 3c d4 3b 7e 5d 3b 3c 9e 53 9d 3c 97 2e d7 3c
       0.0064769825 0.0114358645 0.01920491 0.026267333
0000d0 ef a2 f5 3c 7c 9c f5 3c f1 58 da 3c 1c c6 c1 3c
       0.02998492 0.029981844 0.026653739 0.023654036
0000e0 6d ce bb 3c 64 7c b8 3c aa 73 c9 3c cd 1c d5 3c
       0.02292558 0.022520252 0.024591286 0.02601471
0000f0 f7 1e eb 3c c5 26 fe 3c e5 ec 07 3d 2d eb 0c 3d
       0.028701289 0.031024346 0.033184905 0.03440397
000100 57 33 09 3c 80 63 79 3c 35 30 c9 3c 93 5f 02 3d
       0.008374057 0.015221477 0.02455912 0.031829428
000110 0c ac 09 3d c7 f3 fc 3c 9f 71 d4 3c cd db c0 3c
       0.033611342 0.03087796 0.025933085 0.02354231
000120 ca e1 bb 3c 37 ba b4 3c 67 11 bb 3c 92 e1 ce 3c
       0.022934813 0.02206145 0.022835447 0.025254045
000130 00 53 e8 3c dc ec ff 3c 6a 51 0c 3d 35 53 10 3d
       0.02835989 0.031240873 0.03425733 0.035235602
000140 8d ea 28 3c ea c4 8d 3c df 03 da 3c 10 76 01 3d
       0.0103098275 0.01730581 0.026613174 0.031606734
000150 10 d3 fe 3c 48 07 d8 3c 77 9a b3 3c 27 26 b1 3c
       0.031106502 0.02637066 0.02192424 0.021624638
000160 7e 45 a9 3c 6f 53 a7 3c ce 91 b2 3c e6 ef c2 3c
       0.02066302 0.020425526 0.02179804 0.023796033
000170 4d ac d5 3c 39 81 e5 3c 59 0b f5 3c 01 2d 01 3d
       0.026083136 0.02801572 0.029912638 0.03153706
000180 1f 0c 2f 3c a0 d3 93 3c c8 55 cf 3c 4c 0c e5 3c
       0.010684042 0.018045247 0.025309458 0.027959965
000190 bf e9 cf 3c 53 e8 a1 3c 0f 25 95 3c 13 75 9d 3c
       0.025380014 0.019764101 0.018206147 0.019220864
0001a0 d1 77 99 3c c7 09 99 3c a6 92 9b 3c 16 48 a2 3c
       0.01873389 0.01868142 0.018990826 0.019809764
0001b0 54 d4 b0 3c 0c 5f bc 3c 68 11 c8 3c 81 3f d7 3c
       0.021585621 0.02299454 0.024422362 0.026275398
0001c0 ba b2 2b 3c 40 ef 8a 3c 19 7e b6 3c 4f a9 b8 3c
       0.010479623 0.016959786 0.022276925 0.02254167
0001d0 e6 dc 9b 3c b0 d5 7c 3c 6d fb 85 3c a5 ae 95 3c
       0.019026231 0.015431806 0.01635524 0.018271754
0001e0 10 42 9e 3c ec 80 9d 3c 2b 94 90 3c a1 bc 8c 3c
       0.01931861 0.019226514 0.017648777 0.017179789
0001f0 ba e9 96 3c 43 e3 a1 3c 92 42 a8 3c c2 1b b8 3c
       0.018421996 0.019761687 0.020539556 0.022474173
000200 48 12 22 3c 3c cd 76 3c e0 90 97 3c 42 7d 8e 3c
       0.009892054 0.01506358 0.018501699 0.017393712
000210 e5 e9 7d 3c 8d ac 65 3c 1c 2b 89 3c 00 92 a3 3c
       0.015497659 0.01401819 0.016744189 0.01996708
000220 eb ac b1 3c bf 5d ae 3c 1b c2 99 3c 83 e4 91 3c
       0.021688899 0.021284936 0.018769315 0.017809158
000230 53 e9 96 3c 4b 63 a1 3c c3 92 a5 3c c3 05 b8 3c
       0.018421805 0.019700667 0.020211583 0.022463685
000240 ac a0 17 3c bc e6 56 3c 3d b0 79 3c 2d 46 76 3c
       0.009254616 0.013116535 0.015239772 0.01503138
000250 2e 2e 65 3c 4e 34 83 3c b5 1c 9c 3c 37 d0 b2 3c
       0.013988061 0.016016152 0.019056657 0.0218278
000260 d9 a7 c6 3c 1b ac c0 3c e9 ed b2 3c b6 3c b0 3c
       0.024249958 0.023519566 0.02184196 0.021513324
000270 b9 19 ba 3c 76 54 bb 3c 6c 1a c4 3c d7 99 d3 3c
       0.022717344 0.022867423 0.02393838 0.025830192
000280 f6 f2 09 3c a8 9b 38 3c 2a 04 53 3c 5f 60 67 3c
       0.008419743 0.01126758 0.012879411 0.014122098
000290 69 68 77 3c 65 21 9f 3c 09 41 ab 3c f8 db c6 3c
       0.015100577 0.019425103 0.020905035 0.024274811
0002a0 52 96 d3 3c 30 90 d3 3c 0a a1 d1 3c cb 52 d8 3c
       0.025828514 0.02582559 0.025589485 0.026406666
0002b0 6e c2 e0 3c ae 75 df 3c df 12 e7 3c 08 6d f0 3c
       0.027436461 0.027277794 0.02820724 0.029348865
0002c0 7a 45 e4 3b 2b 46 17 3c 50 cc 2c 3c e8 46 4b 3c
       0.00696629 0.009233038 0.010546759 0.012407042
0002d0 ad 15 86 3c 16 ef a8 3c 54 65 ba 3c 67 26 d5 3c
       0.016367758 0.020621818 0.022753395 0.026019288
0002e0 9e d2 e7 3c 11 24 ea 3c 4f ef e9 3c d4 5c ef 3c
       0.028298672 0.02858165 0.028556494 0.029219069
0002f0 2b b6 f7 3c 0f c0 f8 3c 79 61 fa 3c e6 c1 fa 3c
       0.030238232 0.030365018 0.030564057 0.030610036
000300 aa 38 c5 3b 3a ee fb 3b 22 7b 14 3c aa 8c 39 3c
       0.006018718 0.007688311 0.00906256 0.011325041
000310 ee ff 85 3c f2 c4 a5 3c 14 48 b3 3c 45 5f d5 3c
       0.016357388 0.020235512 0.021884955 0.026046405
000320 3d 72 e6 3c 1c 0f e7 3c 56 2b ea 3c a6 35 eb 3c
       0.028130645 0.028205447 0.028585117 0.028712105
000330 da b6 f1 3c 7e 8f f2 3c bb d0 f1 3c d5 30 eb 3c
       0.029506136 0.029609438 0.029518476 0.028709808
000340 73 9f ac 3b 85 56 e1 3b a0 c3 02 3c 4d 95 29 3c
       0.0052680313 0.006876769 0.007981211 0.0103505375
000350 e2 10 6a 3c af a4 88 3c 3a aa 9b 3c 69 66 ba 3c
       0.014286252 0.01668009 0.019002069 0.022753911
000360 08 80 c8 3c 1a 97 c6 3c 60 06 d1 3c c1 f9 d3 3c
       0.024475113 0.024241973 0.025515735 0.025875928
000370 6b ff de 3c 7b 22 dd 3c 62 66 da 3c 91 45 cb 3c
       0.027221402 0.02699398 0.026660148 0.024813445
000380 c6 0d 8a 3b cd 5c 9f 3b 7b 40 ca 3b c3 07 10 3c
       0.0042130677 0.0048633576 0.0061722375 0.008790913
000390 9f ce 3f 3c 28 ab 6c 3c 28 28 8c 3c e0 4d 98 3c
       0.011706977 0.014445104 0.017108992 0.018591821
0003a0 94 78 99 3c 89 95 98 3c 16 3c a4 3c ac c5 b2 3c
       0.018734254 0.018625991 0.020048182 0.021822773
0003b0 4f 4c bd 3c 5c c3 be 3c 2d 58 b7 3c 33 0d a3 3c
       0.023107676 0.023286514 0.022380913 0.019903755
0003c0 dc 70 60 3b d2 46 6c 3b 06 1c 97 3b bf d4 c7 3b
       0.0034246957 0.0036052954 0.004611495 0.0060983594
0003d0 69 a5 0b 3c 8f 05 35 3c 11 01 56 3c ea c4 5a 3c
       0.008523324 0.011048689 0.013061778 0.013352612
0003e0 fa 3a 59 3c 72 41 59 3c 04 7d 72 3c 7b 0a 8d 3c
       0.01325869 0.013260232 0.014800314 0.017216912
0003f0 65 b6 96 3c f9 9f 9a 3c 31 63 8e 3c 5d 37 7b 3c
       0.01839752 0.018875109 0.017381283 0.015333024
